ch05/model_weights.npz (npz, 319046 bytes, 4 tensors)

W1 f8 [784, 50]
0	0x3f819d16721f9dd7	0.008600402219555754
1	0x3f71f4480e0ee308	0.004383355583677646
2	0xbf89ab66a1737f7c	-0.012533952524279128
3	0x3f84d64de66844a3	0.010174378007862755
4	0xbf72431d7215f776	-0.004458537122784869
5	0x3f856926ccc8e1b2	0.010454466938527005
6	0x3f6da947a2023bdb	0.0036207579688105457
7	0x3f8f03d80260b98a	0.015144050190511366
8	0x3f6da30d21a1be93	0.003617787978377704
9	0xbf710789a683e188	-0.004157579133100227
10	0xbf851fe8f54b1a3a	-0.010314769731292295
11	0x3f93a0f4c3b45e5c	0.019168686337336246
12	0xbf51b5e29033ddb2	-0.0010809624225752543
13	0x3f6ff5b1f462d4c1	0.0039013362575937853
14	0xbf7bd80ff18c932d	-0.006797849921700555
15	0x3f87e84935219355	0.011673519071516184
16	0x3f764148e0db1dde	0.005433354073552247
17	0xbf5f86f315b30bd6	-0.001924264323677196
18	0xbf604dedca0bf02c	-0.0019902843781647497
19	0xbf6d7878b239c2e4	-0.0035974843356644127
20	0x3f833bcd108b09b3	0.009391405169826372
21	0x3f82ca9c0410de59	0.009175509332734299
22	0xbf841134caadccf6	-0.009798443255681449
23	0xbf75264b676cfb01	-0.005163473650837914
24	0xbf7ce375a8329d85	-0.0070528598763880445
25	0xbf29bc7468ad94a3	-0.00019635125166953424
26	0x3f85e9556ddb818d	0.01069895497806852
27	0x3f8d134184d7c6e3	0.014196884027998851
28	0x3f85734b49c76b0a	0.010473812283569046
29	0xbf78ea0f082a2049	-0.006082590788203454
30	0x3f7b81dc0d53d636	0.006715640619622534
31	0xbf80d1694d304b15	-0.008211920421705746
32	0x3f791443a36b6141	0.006122841083844145
33	0x3f6afcb87c688107	0.003294334720763573
34	0x3f67bb3591f9f8d1	0.0028968855183953775
35	0x3f885e3a9b4e84a0	0.011898477425179188
36	0xbf706dd27bf7fe6f	-0.004010984615433351
37	0xbf6ee9f871063dc4	-0.0037736751912189354
38	0xbf612068b4928c1f	-0.0020906491304955167
39	0x3f8b9541ccb1709c	0.013468278941381855
40	0x3f9387ed0b5d7642	0.019073203867597373
41	0x3f8231558504ec7e	0.008883159753727773
42	0x3f9a8dd42fa9bf64	0.025931659134982424
43	0x3f683c2ddac71418	0.002958383140340814
44	0xbf7522d7920089ac	-0.0051601811137821745
45	0x3f982ce8aed7c77c	0.02360881392627999
46	0x3f9119dee8377741	0.016700251506214462
47	0x3f74672a7066073e	0.0049811990523965215
48	0x3f8007125fef84e8	0.007825988342974502
49	0xbf85ac31a6da1a85	-0.010582340149324363
50	0xbf43b52e66aaaa95	-0.000601432472952484
51	0x3f3943c71c1ba38d	0.00038550959662458293
52	0x3f60f8d85ab9a29c	0.0020717836066988637
53	0xbf70c2c83586485c	-0.004092008654327097
54	0x3f595ea7d6860191	0.0015484465639873139
55	0xbf7eb6b4d177208c	-0.007498461075961537
56	0xbf839a22b3c98f5f	-0.009571333991693796
57	0x3f53c26681b9a301	0.0012060166399356367
58	0xbf96d2d1ce5c87c1	-0.022288587780287864
59	0xbf7d023dacb205fe	-0.007082215229389897
60	0xbf81ee5079c5bd37	-0.00875532981510095
61	0xbf701ce5ca55b8da	-0.003933808916697335
62	0x3f8a4f6719d54ad0	0.012846761203637952
63	0x3f7d802fa5776888	0.007202325933997618
64	0x3f7091718d90e308	0.004044955793738543
65	0x3f6a8688dbd1c044	0.0032379792233357147
66	0x3f7b48f14e13205f	0.00666136035687978
67	0x3f8ff678a0d19ec9	0.015606825263787443
68	0xbf8a798b8c507a6d	-0.012927141398958864
69	0xbf64bd1f05fcc9bf	-0.002531586258464474
70	0xbf7023c2b1d5046a	-0.003940353895189744
71	0x3f7f607a5d359305	0.007660367951164875
72	0x3f8b0e19c2757d15	0.013210488554874314
73	0x3f5c59e0bc0ec1e3	0.0017304129289464835
74	0xbf7cb755d6b3cad2	-0.007010779673907579
75	0x3f98029246a312e1	0.023447309075680493
76	0x3f7871cf74cb55bf	0.005967913032426108
77	0x3f6c4b0252e27d9c	0.003453735865221309
78	0x3f793710ba916303	0.006156030031967632
79	0xbf60e87171c4ca25	-0.002063962527381296
80	0xbf65273b4d1436e3	-0.0025821836685569906
81	0xbf6dc329818a48f8	-0.003633099619329557
82	0xbf861ee46970c732	-0.010801109760084058
83	0x3f861444482e4c0e	0.010780843212876003
84	0x3f954d76f1828011	0.020803316584192603
85	0x3f77724e7ee1ec12	0.005724245666097099
86	0xbf8f79fe27f82864	-0.015369401545303592
87	0x3f8597d18f1af477	0.010543477229811622
88	0xbf42a67ace8bef9a	-0.000569162334698603
89	0x3f620b2fb241465f	0.0022025996750379274
90	0x3f81a433b502bdea	0.008613971673496718
91	0xbf8ea0b3bc9bb765	-0.014954952424399879
92	0xbf57863512a848c5	-0.0014358061113211456
93	0x3f822a80661b00ee	0.008870127788555195
94	0x3f8ce8a8081cc981	0.014115631816456144
95	0xbf7148a2ad0fa501	-0.004219661191180225
96	0xbf73f37f8e4961aa	-0.004870889916297841
97	0x3f70fe80a900ffd3	0.004148962572855869
98	0xbf8fddb370a9d9ee	-0.015559579730717279
99	0x3f9571fc4f9285fc	0.020942633015357245
100	0xbf6bf797f2b1741b	-0.0034139602408189812
101	0xbf8d00791eafc470	-0.014161058663349574
102	0xbf5dc8f76d9c27c3	-0.001817933682505033
103	0xbf44708f14d4e4d2	-0.0006237696303862622
104	0xbf791e60b796be7c	-0.0061324861539301355
105	0x3f8c4305ce50ca2e	0.013799710615875229
106	0x3f8f6abdc1d1a823	0.015340311505685439
107	0xbf85092b37add3c0	-0.010271394383133514
108	0x3f7b5eeebba96f4c	0.00668233161067262
109	0x3f6aa5d80f77bd88	0.0032529086999983393
110	0x3f423ba2f8a177d5	0.0005564256437187118
111	0xbf7d1a14483692f5	-0.007104949213872604
112	0x3f620a2b427e464f	0.002202114574125592
113	0x3f900a1d0736a188	0.015663579526206145
114	0x3f7893566b33720c	0.005999887059456654
115	0x3f8c4376594cc80d	0.013800549125878825
116	0xbf736ab9703054ec	-0.004740452163806124
117	0xbf5bba2f0351ab36	-0.0016923388586984173
118	0xbf540b19238d6f9a	-0.0012233491417736665
119	0xbf5a799f7e5285e5	-0.0016159112504187053
120	0xbf726d097db5420e	-0.004498517107393697
121	0xbf618e55aae0dd3e	-0.0021430657571063485
122	0xbf8631e365cfbe0e	-0.010837341827907767
123	0x3f7faea44481d08a	0.007734910650572977
124	0x3f926daa24cf9e58	0.01799646234203886
125	0x3f93cda22bd8ec23	0.019339116979818393
126	0xbf6c4b0c99393bda	-0.0034537550034552224
127	0xbf8d17e6b9754a12	-0.014205744299634868
128	0x3f91ce47385fb139	0.01738845140055043
129	0xbf7c97a1c1d99f6e	-0.006980544914405458
130	0xbf820b5198562f08	-0.008810651265569472
131	0x3f7d7c0af0162e32	0.007198374486857827
132	0x3f747c1c1e63f224	0.005001172865601453
133	0x3f569fc125baf268	0.0013808618740959403
134	0xbf785ec964d160d3	-0.005949770636185475
135	0x3f8aae777df77ae8	0.013028081447314446
136	0xbf619789156f32eb	-0.002147453061729689
137	0xbf81180a9ae6d9d8	-0.008346636631228074
138	0xbf4cdbaa7553893a	-0.0008806783977457829
139	0x3f85e7f457f58961	0.01069632428579287
140	0xbf80a953db8db931	-0.008135466706985813
141	0x3f73937e436e4111	0.004779332367334869
142	0xbf7b53dd7228424d	-0.006671776793624473
143	0x3f7aebb766d555c5	0.0065724529389021335
144	0x3f60375839dd52b2	0.001979515377494267
145	0xbf810265c3ff21bd	-0.00830535416015798
146	0xbf80caf4de66151f	-0.008199608838149573
147	0xbf8d41cd5128a29e	-0.014285663642185139
148	0xbf85de71c66d97ef	-0.010678185337109595
149	0xbf75b725df563920	-0.005301616610621701
150	0x3f5abbf043935f29	0.001631722100048758
151	0xbf8e43ac1f427964	-0.014777512268037092
152	0x3f6cc4f65c4e5f30	0.003511887715330085
153	0x3f74e862a8d845ca	0.005104432476870932
154	0x3f70ce34bfca1ccc	0.004102903415179781
155	0xbf862d0b3d4cca3f	-0.010828101928926801
156	0xbf2e307d79c8c4ea	-0.00023032695470840493
157	0xbf85182789ae5ffb	-0.010299977196879686
158	0xbf8f45b077e76100	-0.015269640597509682
159	0x3f5a9ed3ffb7ba1e	0.0016247816373568045
160	0x3f828f0ac863e50d	0.009061893692420964
161	0x3f73ac9974a8988f	0.004803275524443275
162	0x3f826c22eac3f325	0.008995316304657284
163	0xbf8249c7899e4651	-0.00892978562095262
164	0xbf8ff269cd7ae919	-0.015599085410361856
165	0xbf7f61aa986bc91b	-0.00766150130106016
166	0xbf723a4a317195b9	-0.004450120751334046
167	0xbf4f12b5cc8297f0	-0.0009482753457816778
168	0x3f858fafba826dbc	0.010527966384237135
169	0x3f7e80b6c1bf09fe	0.007446969884713271
170	0x3f80abcecc57f498	0.008140197382994693
171	0x3f724ca772c5907c	0.00446763429167529
172	0x3f73c515df09347c	0.0048266271920286395
173	0x3f70a83a26fd0c40	0.0040666839193504445
174	0x3f7739c2e366f9b7	0.005670319826491291
175	0x3f8ad9d79ca058c4	0.013110813586575516
176	0x3f83cc5be07d84fa	0.009667127407456
177	0xbf30f9a04dc1654e	-0.00025901950517022855
178	0xbf89a6695586e3a8	-0.012524435923170277
179	0xbf7199d76ea82056	-0.004297105343091875
180	0xbf331216235b17d0	-0.0002909950302235594
181	0x3f76cad069c41f15	0.005564512361395453
182	0xbf8210593d28d4a4	-0.008820244959773689
183	0x3f8e86888b0c3847	0.014905039542579724
184	0x3f739e3026f7909c	0.0047895317979717265
185	0xbf8563278def0cf6	-0.010443028468108722
186	0x3f7f840a28124cba	0.007694282220785437
187	0xbf948c303e521444	-0.020066026500462422
188	0x3f49c57b91a69b40	0.0007864812244421163
189	0xbf58f098b0dda276	-0.0015222064134496039
190	0xbf72ab16a08294cc	-0.0045576938502211554
191	0xbf822be014a6e82e	-0.008872748022316381
192	0xbf7294f8490173ee	-0.00453659998319454
193	0xbf70673ccff1f96c	-0.0040047049980088505
194	0xbf5cad48397714b7	-0.0017502980534669762
195	0x3f8b2b14ffa4ab61	0.013265766193020391
196	0xbf759ffc22a4b55a	-0.005279526618591513
197	0xbf5f7516d6d7c403	-0.0019200060881952037
198	0x3f4e11c8e282f0ff	0.0009176474459518246
199	0xbf659a09e82dfc44	-0.002636927937998775
200	0xbf51871b48d0a651	-0.0010698095750377899
201	0xbf828fcbb6ac3247	-0.00906333113882697
202	0x3f83d2ca0c6ae37f	0.009679392341569002
203	0x3f76faad0f248741	0.00561015702467832
204	0xbf8ae048e0ae9eec	-0.013123101574663086
205	0x3f600f9a02f26197	0.001960564426166832
206	0xbf5433c3f3d86b08	-0.0012330449675405659
207	0x3f88a5df5ca9b94a	0.012035126700734939
208	0xbf75c6c47f296569	-0.005316512646993268
209	0xbf870e673077f9b1	-0.011257940451284339
210	0xbf4bb53aa760189b	-0.0008455788035923896
211	0xbf77deb0638b98ef	-0.005827607172909518
212	0x3f7358bdb7122ddc	0.0047233019587440105
213	0x3f6b089e3215cff5	0.003300007797117028
214	0x3f7e8dc4cd95d4f1	0.0074594199771713535
215	0x3f90ed1d7571ff6a	0.016529522221844152
216	0x3f778a0e77a55e3b	0.005746895325806241
217	0xbf869c2980520e27	-0.011040043095142128
218	0x3f6487e9aff6767f	0.0025062145429746714
219	0x3f711748c67f135f	0.004172596243681464
220	0x3f767ed18bb76432	0.005492037332680376
221	0x3f840feaf78f3e94	0.009795985870282999
222	0x3f835d0c2a67a45f	0.009454817813962344
223	0x3f7289f8aaf2ceca	0.004526110990969287
224	0xbf62fbe766cb435e	-0.0023173827706632196
225	0xbf3e462b17d22b1a	-0.00046194603039200063
226	0xbf858634f057ada9	-0.0105098853918751
227	0x3f71428003c71117	0.004213810022012396
228	0x3f6e16a4524bc073	0.0036729058650664614
229	0x3f9063f6f927e9a5	0.01600633521773322
230	0xbf8d91711685e097	-0.014437564372869622
231	0xbf851d038f58e85e	-0.010309245884048742
232	0x3f78474cede264a9	0.0059273724602004
233	0x3f7146ed63f22017	0.004218032175352013
234	0xbf8298e4648c3f31	-0.009080681150890864
235	0xbf828ec328fe9595	-0.009061360062171878
236	0xbf54e29582bff352	-0.001274724966605596
237	0xbf865bf52d80a505	-0.010917582942129753
238	0xbf6856582c76c60e	-0.0029708597318964863
239	0x3f9390a144f7691a	0.0191064070075778
240	0x3f488f13a2ac574a	0.0007494779468710602
241	0x3f89e02d441c5f0d	0.012634614602162775
242	0xbf7a18bb58d0ee67	-0.0063712423553244696
243	0x3f4603db6e55af98	0.0006718465271382422
244	0x3f82faa7e0629ed8	0.009267150435632684
245	0xbf877627dcab42ad	-0.011455832883627915
246	0x3f5706791c560660	0.0014053518983420318
247	0xbf8e7890789a7011	-0.014878395729560652
248	0xbf4f10465be453de	-0.000947985033948325
249	0xbf69b26f39e11b1c	-0.0031368420013991993
250	0xbf7d58a69e5c5b89	-0.00716462216748582
251	0xbf830aff21143b4a	-0.009298318097106812
252	0x3f81ed23f34a2d42	0.00875309072696118
253	0x3f8fc8f461522a19	0.01552000925064072
254	0xbf9c982fb3d403fb	-0.02792429480632917
255	0xbf39a34259eba552	-0.0003912007322655803

b1 f8 [50]
0	0x3fd1178a8e7028db	0.26706184301350583
1	0x3fd0859bb93eb93e	0.2581548031838742
2	0xbfb5050e28152b60	-0.08210838774281859
3	0xbf951449a0d2a978	-0.020585203591204387
4	0x3fb8b88ef4d9c627	0.09656613805579949
5	0xbfbb449f2cd56819	-0.10651583523340981
6	0xbfb222c33167f99e	-0.07084293323712251
7	0xbfcc42bcb6f660cb	-0.22078665670119899
8	0x3faa7de2adb9663e	0.051741679865426424
9	0xbfa077660dc8ca4b	-0.03216093939081029
10	0xbfce997e936439cb	-0.23905927845812722
11	0x3fb389de4fdf8a63	0.07632245492963245
12	0xbf577cab330b5a2f	-0.0014335319394170978
13	0x3fb18007be09c63f	0.06835983647922549
14	0x3fcbd0981a250375	0.21730328823653236
15	0x3f99ef5eba15b6fa	0.02532718668719889
16	0x3fc893346fd59a98	0.19199233494437773
17	0x3fba8be33214f6d9	0.10369701359465057
18	0x3fc825b40eac0772	0.18865061489492124
19	0x3fcbe7f20fde19fc	0.21801591658386588
20	0x3fc0c8f6e9f7ce34	0.13113295006006498
21	0x3fa499c3d4efbb9e	0.04023563360521297
22	0xbf832c6bb2116c73	-0.00936206948443028
23	0x3fb4cba2a46aeb7c	0.08123222841360972
24	0x3fadc6d18e648ccf	0.05815749037926709
25	0xbf8b272241332791	-0.013258235563984562
26	0x3fc2641acc57be8b	0.1436799524085369
27	0x3fc0f42c083135e6	0.13245153808604399
28	0xbf7be61192873697	-0.006811207429974118
29	0x3fb7ca05eded24b9	0.09292637881039213
30	0x3fbe9cc06ffc250e	0.11957934125907263
31	0xbfb1cf69a56beac8	-0.06957111633884516
32	0xbfa2d29fb2b53904	-0.03676318222515998
33	0x3faaa877940a7221	0.05206655199183197
34	0x3fb1b0b2188721fc	0.06910241221260799
35	0x3fc8666ecbb48eff	0.19062600084827605
36	0x3fd7fed37ad30312	0.3749283503967017
37	0x3fa273a936bd42bb	0.036038673336070436
38	0xbf90b2242e009053	-0.016304555232764816
39	0x3fa8da56c3f918fc	0.04854079382180207
40	0xbfa21d962fb75b06	-0.035381978344664985
41	0xbf8e142d9efea9b3	-0.014686924376140142
42	0xbfa3983d5d7e0999	-0.038270871794355794
43	0x3fc12af2bb615169	0.13412317418500244
44	0x3f984d52c5feced3	0.02373246510951683
45	0xbfc3982810edd460	-0.15308094812977213
46	0x3f9fc45b72009ae0	0.03102248080554204
47	0x3fc2fafd8a466e39	0.14828461887087643
48	0xbfb4c67c04872213	-0.08115363226455256
49	0x3fc56937f4546c80	0.16727351598897044

W2 f8 [50, 10]
0	0x3fc01591bf75f11e	0.12565824364345074
1	0xbfe3d787b9da7570	-0.6200598363827066
2	0x3fd0cf04a89ae7f9	0.2626353880438042
3	0xbfc1e9a003626897	-0.1399421707654411
4	0xbfe5e8505b6805e9	-0.6846086297302324
5	0x3fefe5a3302e8d6c	0.9967819157649678
6	0xbfee244aed67dd0f	-0.9419302594023139
7	0x3fe93a65daadfc54	0.7883786460005333
8	0xbfd5087ff0ce9168	-0.3286437846784538
9	0x3fe0c552d1b325f5	0.5240873428057841
10	0x3fcd38f7e23f692e	0.22830103442431365
11	0x3f748a70d9d9cd52	0.005014839958323707
12	0xbfc28c3ccaede153	-0.1449047079911546
13	0xbfc42ca1651fe6c0	-0.15761201322293594
14	0xbfda2e3894e68af4	-0.4090711073023805
15	0x3fd44e8838887577	0.3172932197647564
16	0xbfad2ed96198f712	-0.05699805561424233
17	0x3ff1cbe93e828ffd	1.112282985858655
18	0xbfe22a43fd73e7af	-0.5676593733071423
19	0xbfd5b9e801a7addc	-0.3394718185579373
20	0x3fdc0d43a58049ed	0.43830958521098645
21	0x3fa775631f10201f	0.045817468206280625
22	0xbfcb2e236fe8beb6	-0.2123455330306478
23	0x3fd8db18e5bf6ee3	0.38837263523394777
24	0xbfef6e54f7243977	-0.9822182490332086
25	0xbfe327db9747270d	-0.5986154513022669
26	0xbfcee3506b6e19d7	-0.24131207700356924
27	0x3fd8f99f50a16c03	0.39023573755338264
28	0x3fbcb272f0f30547	0.11209791548300983
29	0x3fe62708dc3fd95f	0.6922649671312618
30	0x3fcbaba7935d85cd	0.21617598243305594
31	0xbfc1448a937bee43	-0.1349042148720959
32	0xbfda977cd35d0f6a	-0.4154960693451729
33	0x3fd988149412587a	0.398930687524064
34	0x3fdb602cead7f94e	0.4277450841326712
35	0xbfe66a3b6f1e6e00	-0.7004677934923507
36	0xbfc9919ef6bca199	-0.19975649879166893
37	0x3fe5a1f2acbf8185	0.6760190366731399
38	0xbfde044045917b6f	-0.4690094642045812
39	0x3fc59d06252387f1	0.16885449231546049
40	0x3fd0f33ee49e20a7	0.264846537837466
41	0x3fd5587c3752d9ea	0.3335257091779612
42	0x3fb736088ee733c5	0.0906682347187618
43	0xbfd0733cc90e4765	-0.25703353533127987
44	0xbfcdf5955a25eafc	-0.2340571108032562
45	0x3fe1ec4efdd5b813	0.5600962598525733
46	0xbfc69d034aed9895	-0.17666665228461356
47	0xbfc32df87063bcfa	-0.14984040725492048
48	0xbfe661c3d2877ee1	-0.6994341956996913
49	0x3fd2178512122237	0.2826855350945467
50	0x3fe24edc53be4680	0.5721265445337878
51	0xbfd896c43551172f	-0.3842020531341061
52	0x3ff04b0cba0383b6	1.018322683921935
53	0xbfd82b871bb3b98d	-0.37765672402647327
54	0x3fd0eae06072bdcb	0.2643357221486126
55	0xbfe5a2304939bdb1	-0.6760484152018106
56	0x3fe27c83d592c4fc	0.5776995822290298
57	0xbfe40a91ea394e77	-0.6262902807888641
58	0xbfded8bf25839b0f	-0.4819791666363224
59	0x3fc1d6579184c726	0.1393537006893492
60	0xbfb70fce817d3c6a	-0.09008494054181573
61	0xbfb33ee2df592836	-0.07517831757391566
62	0xbfdf741839598296	-0.49146085358192104
63	0x3fd5538cac783743	0.3332244571946498
64	0xbfd59f12ff73b746	-0.3378341192864024
65	0x3fe0cd6f27c5e0dc	0.5250774170699759
66	0x3fc9130f4ffd7a30	0.19589415937203247
67	0xbfb02ab1e8d8fc46	-0.06315147337680668
68	0xbfca213f1506be25	-0.20413960005451873
69	0x3fd04ad903ee3f76	0.25456834205487355
70	0x3fa94e7facf2c578	0.049427022802215725
71	0xbfd3c81e9cf7c724	-0.3090893299951054
72	0x3fc1e003c6c69c70	0.139648887690075
73	0x3fcaf03b1c155625	0.2104562651754104
74	0xbfa8b179c7f78c09	-0.04822903219226055
75	0xbfc56e1da04a59a7	-0.16742296530419518
76	0xbfb9c9182c8c97c5	-0.10072470748545388
77	0xbfdb087f3654905c	-0.4223936110086066
78	0x3feec551f65fc002	0.9615869342796943
79	0xbfd3fc14932b0477	-0.31226076480749704
80	0x3fd5b0ab8a062c65	0.3389080856220004
81	0xbfd0154b3af98d13	-0.25129967459925345
82	0xbfd07b53bad17681	-0.2575272869488359
83	0xbfc6eeb42fe2212b	-0.17915966356327692
84	0x3fa62e6f552f83fc	0.043323020123132466
85	0xbfcddcddb6ec13c6	-0.233302797620267
86	0xbfc1f357cbc25219	-0.14023873757527452
87	0x3fca5ec8ed6da895	0.20601760476285294
88	0x3f846a4a80f8c063	0.009968359051612368
89	0x3fdc7e2da3f679fb	0.44520131122581547
90	0xbfd7bfe4dccff820	-0.37108727992733925
91	0x3fe66927bd09563f	0.700336331569538
92	0x3ff45d438b0a9c43	1.2727694922739523
93	0xbfcc9e23d5b94fdd	-0.22357604919181898
94	0xbfe09d7a17b30c5a	-0.5192232573393867
95	0x3fa2f714b1982e47	0.03704132717038227
96	0xbfd164979be65697	-0.27176466202340904
97	0x3fe241ab6eeff980	0.5705163161035642
98	0xbf99b6940b8337dc	-0.025110543444320274
99	0xbff2f53bc7ceb1a0	-1.1848714642502287
100	0x3fdb09e5e6377ec3	0.42247912866694665
101	0x3fcc113bd3e5e6da	0.219275930848929
102	0x3ff0f94bc151db51	1.06086326137093
103	0x3fe231f4765f9a60	0.5685980140668327
104	0xbff7ac8ceb3778b2	-1.479626578154733
105	0x3fd0c7a33c877bab	0.2621849146943826
106	0xbfbaf2ad8e480ef6	-0.10526547168415931
107	0xbfedbe6866c0b65e	-0.9294931418314254
108	0x3fcca478d4f2357f	0.22376928708801455
109	0xbfd0c417829c400e	-0.261968495892689
110	0x3fc72be7d2887b74	0.1810273912423913
111	0xbfd3536e64440f49	-0.3019672373923084
112	0xbfb6b877ef2aca02	-0.08875226582566856
113	0xbfd799a3792b1111	-0.3687523539813507
114	0xbfcd0e6570454b25	-0.227001838512103
115	0x3fdd5b2c1ac15e2d	0.45868971455408564
116	0x3fe0e28923262860	0.527653282785888
117	0xbfcbeac5cf332e0f	-0.2181021939962737
118	0x3fd50363ac3a854c	0.3283318693084609
119	0xbfd23d1a6ad2b376	-0.2849794429010254
120	0xbfd35596dc2a3628	-0.30209895611264637
121	0xbfa1029669b71b24	-0.03322286644429642
122	0x3fd6b6202966750c	0.354866066388994
123	0x3fd8fd2156a14288	0.3904498430247618
124	0x3fe3460c039a45fc	0.6023006506313204
125	0xbfe2ab2cb888dc86	-0.5833953479949663
126	0xbfcf703f78c95cc4	-0.24561303518087219
127	0xbfcc82f43882bba4	-0.22274639853773437
128	0x3fcd65e21a7dbe3b	0.2296717290259823
129	0xbfcb29a00aea1448	-0.21220779927185363
130	0x3fcdea61c5ebf219	0.23371526874679274
131	0xbfdd848804a56ad1	-0.46121406987883257
132	0xbfdaeb97c137ab82	-0.42062944287197734
133	0xbfb75958368d30f7	-0.0912070401365702
134	0xbfe273b9c74d6454	-0.5766266720412525
135	0x3fe0d812601ac521	0.5263759495775596
136	0x3f8b365868756087	0.013287249267406999
137	0x3fc069e6f71fff95	0.12823187891626434
138	0x3fc3037f28a9e5d1	0.1485442112496416
139	0x3fe11a01215fd0e0	0.5344243671266007
140	0x3fa7301f2fa68197	0.0452890153567324
141	0x3f8e6c7babba8336	0.014855352571716201
142	0xbfdd2538a99f1567	-0.4553968101939376
143	0xbfc59665b3712452	-0.16865226041616893
144	0x3fe250fe2dd4729e	0.5723868270029759
145	0x3fd4a0e2235173b2	0.3223195404914875
146	0x3fc82e0bc05bc32b	0.188905209469817
147	0x3fe374dce763c556	0.6080154914217626
148	0xbfbcd41f6cd60a53	-0.1126117363656161
149	0xbff0a2df68fcec3e	-1.039763841733261
150	0x3fea9e03950f5586	0.8317888175321719
151	0xbfe4e9ade255c398	-0.6535252972226884
152	0x3fc92e39f4ed76d1	0.19672321757655323
153	0x3fd7e1726f81ee2c	0.37313519372375725
154	0xbfe4426e45381321	-0.6331092216429149
155	0x3fa0d0e98362d54d	0.03284387329896763
156	0x3fb689f4867f0c2b	0.088042528949743
157	0x3fc8034d3d46c3c1	0.1876007603837291
158	0xbfe322ebe89ac5e1	-0.5980128806169739
159	0x3fc90e523fe050b6	0.19574955100018138
160	0xbfe56673a4e101c9	-0.668756315259139
161	0x3fc70df629c60be7	0.18011357345321174
162	0xbfef734ce2828792	-0.9828247474690548
163	0x3fdd7cab2945c11d	0.46073416739001677
164	0x3fe6587ce64ed228	0.6983017442894992
165	0x3fe8d4013dee12e7	0.7758794984407275
166	0xbfd42f40eb38b6c8	-0.3153841301999418
167	0xbff14247adfb8664	-1.0786816402618564
168	0x3fcea7cc364c9efe	0.23949577952702578
169	0x3fe53927322d1533	0.663226697921948
170	0xbfe487b78e1360fe	-0.6415670180240622
171	0x3fe17ef365f07929	0.5467469206812768
172	0x3fd918d113769170	0.39213969135950943
173	0xbfd57f9c311fb30f	-0.3359137038922179
174	0x3fc09162416bb2ab	0.12943676180238603
175	0x3fe16cd8399e74ff	0.5445366978998719
176	0xbfbfb89adbaef632	-0.12391059745183311
177	0x3fbd254121f9b9f6	0.11384970740775899
178	0xbfd11ec692439207	-0.26750339778507776
179	0xbfd86245b7a4c4ec	-0.3809980672259161
180	0xbfe40c41cff09ad2	-0.6264962254834592
181	0x3fe42136cb70950f	0.629054448455152
182	0x3fc033b1aa706d99	0.12657757589554988
183	0xbfed4534a8de378e	-0.9146979616359532
184	0x3fbc87bffe82232c	0.11144638026793235
185	0x3fbbfe02084c95ca	0.10934460356346345
186	0x3fc4f022ca132e16	0.16357836596431302
187	0xbfe3cd3747420ce2	-0.6188007728345861
188	0x3fd6a73d5ddd5bd2	0.3539575020453728
189	0x3fe65e26409c6b39	0.6989928495343981
190	0x3fae257fe5fc5c50	0.0588798492664685
191	0xbfe57b749b06e1fc	-0.6713202503079283
192	0x3fe31dac70e76c6e	0.5973722653537956
193	0xbfd8518a6e47ef68	-0.3799768521273479
194	0x3fc96fdf247a5c31	0.19872655182982293
195	0x3fd587a07e5177e1	0.3364030107094305
196	0x3ff073957bcc0fad	1.028218730528333
197	0xbff278cdf7512ef0	-1.1544932995629402
198	0x3fdf95a87e8eef63	0.49350941046917834
199	0xbfe1e18107985faf	-0.5587773464530893
200	0xbfd9d973e9551078	-0.4038972643504688
201	0x3fe1f68bc133d870	0.5613459371077294
202	0xbfe43818072d84db	-0.631847394961507
203	0x3fdd244ea6129478	0.4553410169413108
204	0x3fccd8929ce2d299	0.22535927448702323
205	0x3fdf187b5a905cf7	0.48586925357945127
206	0x3f846976f87547b1	0.0099667830060389
207	0x3fbb90b40286fc6c	0.10767674504948993
208	0xbff055a39e1eb9d7	-1.0209079910815626
209	0x3fd1a7100a2c284f	0.27582169526488526
210	0xbf64fac3e31c04a9	-0.002560980407793585
211	0x3fa39ef11b4cee25	0.03832200487383045
212	0xbfe13dce28ac45db	-0.5387945932763459
213	0xbfe9ef3fef3f64ad	-0.8104552910619042
214	0x3fc43c61a5936a31	0.1580926950908448
215	0x3fb572012ac349db	0.08377082151427066
216	0x3fdf650ffee45b5c	0.49054336444662794
217	0xbfc3e1bc8e256c2d	-0.1553264326165346
218	0x3fe79328ac033638	0.7367137298221627
219	0xbf92a55a21c0b4e0	-0.018208893118004776
220	0x3fbcc4759793fd13	0.11237273169171073
221	0x3fe6d7a381899499	0.713823082926541
222	0xbf70911f44a6ba30	-0.0040446492588857436
223	0xbfcf3c70755bc5f5	-0.2440319607772349
224	0x3f9fbb214dc6dad7	0.03098728215419552
225	0x3fcabf5aa2d51576	0.20896466208266035
226	0xbfc7df1c4d133107	-0.1864962936728107
227	0x3fc5f68ca28eecc5	0.1715865892163945
228	0xbfe1b97677c94ebb	-0.5538894977166459
229	0xbfd0f9efd82ce86b	-0.2652549372757053
230	0x3fbedf78ab89ee6c	0.12059740245779843
231	0x3fe03a9e3a4b9f28	0.5071555269796351
232	0x3fbef8b3fb19b917	0.12098240738280129
233	0xbfd2aec6e9ad39a3	-0.2919175416945114
234	0x3fd94b82d5ef7dfa	0.39523383037700877
235	0xbfbcf4615c64468d	-0.11310394769341255
236	0x3fd05d00287c1c48	0.25567630723566426
237	0x3fdba5316194a657	0.4319575741707004
238	0xbff4c5ebb605a803	-1.2983204946744997
239	0xbfbb720cba33f863	-0.1072090105626287
240	0x3f467858e3abf660	0.0006857332258218378
241	0x3fe42e6315334e03	0.6306624807425013
242	0xbfe27ee09f25b15a	-0.5779879673332673
243	0xbfd67427e8a8c927	-0.35083959313046126
244	0x3fb69c7c7096a5f5	0.08832528828374804
245	0x3fb62a7001e4919b	0.08658504530155257
246	0xbf5a4dd07e5c46b4	-0.0016054664678829935
247	0x3fc97d0cd947d462	0.19912872895625627
248	0xbfd703f0353f5670	-0.35961537551825185
249	0x3fd245d2def743f3	0.2855117013360193
250	0xbfc0ce5522710615	-0.1312967699214346
251	0x3fd62694be1e0416	0.34610479894769364
252	0x3fe68854f13597ba	0.7041420661087081
253	0xbfb7efaefe630024	-0.09350103102315238
254	0xbfd648e6189d31d7	-0.3481993904468061
255	0xbfd5d2b346dcb6f4	-0.34098512573369466

b2 f8 [10]
0	0xbfd56478caf641b5	-0.3342573148775288
1	0x3fdba9d750ebf474	0.4322412767649617
2	0xbfbe39b875566d9d	-0.11806824555099245
3	0xbfb850081d724614	-0.09497118681817823
4	0x3fbf44b1415a1f38	0.12214191289433252
5	0x3fd88527d75506b3	0.3831271746495119
6	0xbf9815619337d7ab	-0.023519062624437186
7	0x3f858dda2e90e6f2	0.010524467989046358
8	0xbfd9e6144569ff16	-0.40466791895595244
9	0x3f9c1b90439e0d82	0.02744889652923411
